data.pth (torch, 5273 bytes, 6 tensors)

l1.weight f4 [8, 54]
0	0xbe64cd98	-0.22344053
1	0x3f0ea56e	0.55721176
2	0x3e46956a	0.19392934
3	0x3e8be2df	0.27321526
4	0x3e141382	0.14460567
5	0x3f247557	0.64241546
6	0x3eb293b4	0.34878314
7	0x3e8a650b	0.27030215
8	0x3de585ae	0.11207138
9	0x3ec5b3ae	0.38613647
10	0x3d6d9336	0.05800172
11	0xbe96cd51	-0.2945352
12	0x3d8a4c17	0.06752794
13	0xbe457e48	-0.19286454
14	0x3f03c810	0.51477146
15	0xbdf27c60	-0.11840129
16	0x3e80180d	0.2501835
17	0x3f1a0910	0.6017008
18	0xbe324202	-0.17407992
19	0x3e00896b	0.12552421
20	0xbe5ebfbf	-0.21752833
21	0x3d54d072	0.0519566
22	0x3e56c1e6	0.20972404
23	0xbdb77d0d	-0.089593984
24	0x3ca8dd54	0.02061335
25	0x3dfb3d42	0.122675434
26	0xbea243ea	-0.3169244
27	0x3f23f560	0.6404629
28	0xbe5d09f6	-0.21585831
29	0x3f094a1b	0.536287
30	0x3eafe0ba	0.3435114
31	0xbe5cc856	-0.21560797
32	0xbe736614	-0.23769408
33	0x3e47ef0b	0.19524781
34	0x3f0df70d	0.55455095
35	0xbe3b5980	-0.1829586
36	0x3c0bedf3	0.008540618
37	0x3eb70c66	0.35751647
38	0x3e89f070	0.26941252
39	0x3e7ab64d	0.24483605
40	0x3ec40753	0.38286838
41	0xbf0c7806	-0.5487064
42	0xbe9706ed	-0.2949747
43	0x3eb945ce	0.3618607
44	0x3dbff16a	0.09372218
45	0x3f2af5ac	0.66781116
46	0xbf490a8a	-0.78531706
47	0xbe844493	-0.25833568
48	0xbc28610b	-0.010277043
49	0xbe9cc848	-0.30621552
50	0xbd0be9ab	-0.03415839
51	0xbeb807ee	-0.3594355
52	0x3e72a50d	0.23695774
53	0x3db49a68	0.08818513
54	0x3e913d0c	0.28366888
55	0x3f1cbda0	0.61226845
56	0xbe535992	-0.20639637
57	0xbe8ce3fb	-0.27517685
58	0xbd995e90	-0.074887395
59	0x3d87a3e6	0.06623058
60	0x3e3fa11b	0.187138
61	0xbd34b990	-0.04412228
62	0x3dc50346	0.09619765
63	0xbcc83689	-0.024440067
64	0xbe6e2431	-0.23255993
65	0x3f0fd798	0.56188345
66	0x3f0d9f01	0.55320746
67	0x3f12d035	0.5734895
68	0x3eb7805e	0.35840124
69	0x3e727f3d	0.2368135
70	0xbe4648b5	-0.19363673
71	0x3d286b81	0.04111815
72	0x3e65072d	0.22366019
73	0xbed71862	-0.4201079
74	0x3ea56e33	0.32310638
75	0xbebdb17d	-0.37049475
76	0xbee4bdcc	-0.44676054
77	0xbe15e01c	-0.14636272
78	0x3ecd65f3	0.40116844
79	0xbe0d7a29	-0.13816132
80	0x3eb40574	0.3516041
81	0x3f04968f	0.51792234
82	0x3e330a15	0.17484315
83	0x3ebcbad2	0.36861283
84	0xbdda78d5	-0.10667578
85	0x3edf3dba	0.4360178
86	0xbc257791	-0.010099308
87	0xbda25cc4	-0.0792785
88	0x3ede5098	0.43420863
89	0x3e819874	0.25311625
90	0x3e3df2e7	0.18549691
91	0x3de537ae	0.11192261
92	0x3d17bd84	0.03704597
93	0x3d1e883e	0.03870415
94	0x3ce88717	0.028384728
95	0x3e5eb216	0.21747622
96	0x3e95b187	0.29237005
97	0x3eb98648	0.3623526
98	0x3ddb785a	0.107163146
99	0x3f0ecbb0	0.5577955
100	0x3f37d6d5	0.7181218
101	0x3e8b823f	0.27247807
102	0x3d90029a	0.07031746
103	0x3ed4b59a	0.415448
104	0x3ece594c	0.40302503
105	0x3e88681e	0.26641935
106	0x3e743cd9	0.23851337
107	0x3ec1aed9	0.3782871
108	0xbe8e8e99	-0.27843168
109	0xbe860d06	-0.2618181
110	0x3ecb56b6	0.39714593
111	0x3edb78d8	0.42865634
112	0x3f0dccc7	0.5539059
113	0xbea3806e	-0.31933922
114	0x3ea2c536	0.31791085
115	0x3ea33e5f	0.31883523
116	0x3f36e74f	0.714467
117	0x3eed9ad9	0.46407202
118	0x3ecef2dc	0.40419662
119	0x3f054724	0.52061677
120	0x3e30b827	0.17257749
121	0x3ee5bfb2	0.44872814
122	0xbe03a53b	-0.12855999
123	0x3ece6f67	0.40319368
124	0x3eecd73d	0.46257964
125	0xbe805a7c	-0.25069034
126	0xbe87a071	-0.26489595
127	0x3f066f75	0.5251382
128	0xbe8ed867	-0.27899477
129	0x3f0a16bc	0.5394094
130	0x3f0385e2	0.51376164
131	0x3f285e07	0.65768474
132	0x3f26e5c9	0.65194374
133	0x3e8e7a0d	0.27827492
134	0xbedcb407	-0.431061
135	0xbdd091d8	-0.101840675
136	0xbea2023f	-0.3164234
137	0xbdfd58b5	-0.12370435
138	0xbd828d16	-0.06374566
139	0x3f2e9cc7	0.68207973
140	0xbc709f80	-0.014686465
141	0x3e90e314	0.28298247
142	0xbe5de751	-0.21670271
143	0x3ef2d1e3	0.47425756
144	0xbe927a42	-0.286089
145	0x3f0baa62	0.5455686
146	0x3e73ec4d	0.2382061
147	0x3eccf858	0.4003322
148	0xbcc242e5	-0.023713538
149	0xbee4efc5	-0.4471418
150	0x3ee0913b	0.43860802
151	0xbd9d48e8	-0.076799214
152	0x3f0413f0	0.5159292
153	0xbe5fbd78	-0.2184962
154	0xbf3cf70f	-0.7381448
155	0xbe04835d	-0.12940736
156	0x3e840f78	0.25793052
157	0xbeedd15f	-0.464488
158	0x3f0563de	0.5210551
159	0xbe5cf32d	-0.21577139
160	0x3e8cb7ac	0.2748388
161	0x3d57525c	0.05256878
162	0x3ece3813	0.40277156
163	0x3ec7c3f0	0.39016676
164	0xbeac762b	-0.33683905
165	0x3ed853ea	0.4225152
166	0xbe26650a	-0.16249481
167	0x3ef6297c	0.48078525
168	0xbd337379	-0.043811295
169	0xbe9e436b	-0.3091081
170	0xbf0118f6	-0.5042871
171	0xbd4ee80b	-0.050514262
172	0x3f0479b9	0.51748234
173	0xbe6e286a	-0.23257604
174	0xbe936555	-0.28788248
175	0xbe8cf5e0	-0.27531338
176	0x3c926664	0.01787109
177	0xbcb4cd44	-0.022070535
178	0x3f03e05b	0.51514214
179	0x3f06b7f9	0.5262447
180	0x3e2c333f	0.16816424
181	0x3ef4fb9e	0.4784822
182	0x3edbdf59	0.42943838
183	0x3efc5fc7	0.49291822
184	0x3f120c06	0.57049596
185	0x3eb0a108	0.34497857
186	0xbe82e027	-0.2556164
187	0x3edb8d5e	0.42881292
188	0xbcf2c27b	-0.029633751
189	0x3c6346c1	0.0138718495
190	0xbe11370a	-0.14181152
191	0xbd95db10	-0.073171735
192	0x3ed368ff	0.41291043
193	0xbeca28c0	-0.39484215
194	0x3ee39b9a	0.44454652
195	0xbec2a8b6	-0.3801934
196	0xbe0c2690	-0.13686585
197	0xbe270d4d	-0.16313668
198	0xbe5bd5b7	-0.21468244
199	0xbf08f473	-0.53498
200	0xbe118e83	-0.1421452
201	0xbe4b94c9	-0.19880976
202	0x3e9e6929	0.30939606
203	0x3d567653	0.052358937
204	0xbe6e95fd	-0.23299403
205	0xbe01e15c	-0.12683624
206	0xbed35c86	-0.41281527
207	0xbda30d77	-0.079615526
208	0x3f6441ac	0.8916271
209	0x3f0adf9e	0.5424746
210	0x3e256540	0.16151905
211	0x3caf66ee	0.021411385
212	0xbd363365	-0.044482607
213	0xbc013064	-0.007885072
214	0xbe5b0dcc	-0.21391982
215	0x3e6c7f4a	0.23095432
216	0x3f27f3a6	0.65606153
217	0x3f0cc825	0.54992896
218	0xbecdbc94	-0.40182936
219	0x3e09f70f	0.13473152
220	0xbcfb2be5	-0.030660579
221	0xbf23c625	-0.6397422
222	0xbe8e8d0a	-0.2784198
223	0xbe3d7569	-0.1850182
224	0xbe88ce53	-0.26719913
225	0xbe8d12fc	-0.27553546
226	0x3e980684	0.2969247
227	0x3ec0be9a	0.37645417
228	0x3d30a611	0.043127123
229	0x3ec72197	0.38892815
230	0x3ef2bc4b	0.4740928
231	0x3ea73b45	0.32662407
232	0x3e92705b	0.28601345
233	0xbf236d83	-0.63838977
234	0x3ee02958	0.43781543
235	0x3ec8a627	0.39189264
236	0x3f07696c	0.52895236
237	0x3e8ff2d9	0.28114966
238	0x3ed535cd	0.4164261
239	0x3f08ceaa	0.53440344
240	0x3e242ac8	0.16031945
241	0x3e43c516	0.19118151
242	0x3f13be0a	0.5771185
243	0x3e9df0d4	0.308478
244	0x3e92a39e	0.28640455
245	0x3ebc709e	0.3680467
246	0xbedbdd1a	-0.42942125
247	0x3ef43317	0.47695228
248	0x3ee90ae0	0.4551611
249	0xbeb3b33c	-0.35097682
250	0x3f0971a6	0.5368904
251	0x3f006833	0.50158995
252	0x3eb9e96c	0.363109
253	0xbed30dfb	-0.41221604
254	0xbe1bd5c3	-0.15218262
255	0xbe8faea0	-0.28062916

l1.bias f4 [8]
0	0x3f3304cc	0.69929194
1	0x3eebd138	0.4605806
2	0x3f2fbfd4	0.6865208
3	0x3f788738	0.9708133
4	0x3f23c8b5	0.6397813
5	0x3f021aad	0.50821954
6	0x3f308e43	0.68967074
7	0x3ec62069	0.38696602

l2.weight f4 [8, 8]
0	0x3f8b130e	1.086519
1	0x3cec35ec	0.028834306
2	0xbc586cb5	-0.0132095115
3	0x3fa6a3a5	1.301869
4	0x3eeeb7a6	0.46624488
5	0xbf6dad9e	-0.92843044
6	0x3ef72615	0.48271242
7	0xbf29ad74	-0.66280293
8	0x3f589bd9	0.84612805
9	0x3f4cc0a0	0.7998142
10	0x3f6dbcd1	0.92866236
11	0xbf919143	-1.1372455
12	0xbd7e0b78	-0.062022656
13	0xbe2f2f86	-0.17107973
14	0x3d676839	0.05649588
15	0x3f5f4f0a	0.8722998
16	0x3f71ddf8	0.9447932
17	0x3e4caced	0.19987841
18	0x3eb624a4	0.3557483
19	0x3efb79bc	0.49116313
20	0xbf984ba6	-1.1898086
21	0x3f70f0a8	0.9411721
22	0x3e051daf	0.12999605
23	0x3da50b60	0.0805881
24	0xbf2f3cd7	-0.6845221
25	0x3fa7f05d	1.3120228
26	0xbf864c4f	-1.0492038
27	0x3f129b89	0.5726858
28	0x3f69a094	0.9126065
29	0xbe5ddaea	-0.2166554
30	0xbd4220ab	-0.047394436
31	0x3f86b854	1.0525002
32	0xbf234fd3	-0.6379368
33	0xbe36975c	-0.17831177
34	0x3f7900e1	0.97266966
35	0x3eccee50	0.40025568
36	0x3f42f6d7	0.761579
37	0xbf45999f	-0.7718753
38	0x3f9c76c7	1.2223748
39	0x3f08c0e0	0.53419304
40	0xbf11d894	-0.56971097
41	0x3f130a72	0.57437813
42	0xbef84ecd	-0.4849762
43	0x3d45f1df	0.04832637
44	0x3ea4b316	0.32167882
45	0x3f5695b4	0.8382218
46	0xbf1c10f5	-0.60963374
47	0xbf3d31ff	-0.73904413
48	0x3dc3bd10	0.09557545
49	0xbe8d681f	-0.276185
50	0xbdf07862	-0.11741711
51	0xbe5962fb	-0.21229164
52	0xbeb2473d	-0.34819975
53	0xbddffeb0	-0.1093725
54	0xbd7c8aa0	-0.06165564
55	0xbe96956b	-0.29410872
56	0x3f482fc6	0.78197896
57	0x3f5b0913	0.8556072
58	0xbf0be646	-0.54648244
59	0x3e9388d4	0.2881533
60	0x3f01d70f	0.5071878
61	0x3f07afbe	0.53002536
62	0xbf80b1a6	-1.0054214
63	0xbf4006c8	-0.7501035

l2.bias f4 [8]
0	0x3efd77be	0.4950542
1	0xbd11c295	-0.03558596
2	0x3f217ba2	0.63079274
3	0x3d803e60	0.06261897
4	0x3eea3783	0.45745477
5	0x3e7367f9	0.23770131
6	0xbce07e20	-0.027403891
7	0x3e86cf48	0.26330018

l3.weight f4 [7, 8]
0	0xbf48f2ed	-0.78495675
1	0x3f2f0f64	0.6838286
2	0xbf9563af	-1.1671046
3	0x3dfc171b	0.123090945
4	0x3ef7c829	0.48394898
5	0xbeaa27a3	-0.33233365
6	0x3e3a547a	0.18196288
7	0xbf2031fb	-0.62576264
8	0x3ee4d0d3	0.4469057
9	0x3ee9c5ad	0.45658627
10	0xbf8b16ac	-1.0866294
11	0x3eea9752	0.45818573
12	0xbf7c93f1	-0.9866324
13	0xbf8ba920	-1.0910988
14	0x3e876cbf	0.26450154
15	0x3e9890e3	0.2979804
16	0x3ec6025a	0.3867367
17	0xbf80206c	-1.0009894
18	0x3f40198d	0.7503899
19	0xbf692be5	-0.910826
20	0xbf883f95	-1.0644404
21	0xbeb830a1	-0.359746
22	0xbd7f50a8	-0.06233278
23	0x3eade341	0.33962443
24	0x3f7cfd53	0.9882404
25	0xbf2ec068	-0.6826234
26	0xbf0e1056	-0.55493677
27	0xbf99bd6b	-1.2010931
28	0x3f5e0595	0.8672727
29	0xbf978d07	-1.1839913
30	0x3e8b7279	0.27235773
31	0xbf96f4d9	-1.1793472
32	0xbef6e770	-0.48223448
33	0xbf86825b	-1.0508531
34	0xbf1f72a9	-0.6228433
35	0x3ef967c0	0.48711967
36	0xbf4099fd	-0.7523497
37	0x3f31a1b3	0.6938736
38	0xbe34b320	-0.17646456
39	0x3eb87d55	0.3603312
40	0xbf6581da	-0.8965126
41	0x3f433397	0.76250595
42	0x3f3bb66e	0.7332524
43	0xbf382069	-0.71924454
44	0xbe9fda1a	-0.31221086
45	0xbf875c06	-1.0574958
46	0xbc869330	-0.016427606
47	0xbfab3001	-1.3374025
48	0x3e4f47bc	0.20242208
49	0xbf55971d	-0.83433706
50	0xbf8bf335	-1.0933596
51	0x3f8694ec	1.0514197
52	0x3e900a17	0.28132698
53	0xbf0f46e7	-0.55967563
54	0xbd5220a0	-0.051300645
55	0xbf848c22	-1.0355265

l3.bias f4 [7]
0	0xbedcd612	-0.43132073
1	0xbeeb49fb	-0.4595488
2	0x3e4ef7b1	0.20211674
3	0x3d92d610	0.071697354
4	0xbd729347	-0.059222486
5	0x3e797574	0.24361211
6	0xbea3bae3	-0.3197852
